empushy/src/main/res/raw/topic_model.tflite (tflite, 6288 bytes, 4 tensors)

dense_5/MatMul_bias f4 [10]
0.2725549 1.0696677 1.37488 1.4361957 0.63366836 1.0094622 0.99393 1.6355653
1.2237836 0.9587117
00000000: 518c 8b3e dfea 883f 11fc af3f 43d5 b73f
00000010: 1738 223f 0f36 813f 3272 7e3f 345a d13f
00000020: f1a4 9c3f 216e 753f

dense_5/kernel/transpose f4 [10, 100]
-0.11168894 -0.12079826 0.018994484 -0.16592357 -0.31827667 0.34639555 0.5554972 0.01175903
0.047176704 -0.0200952 -0.047588598 -0.055751167 -0.09306395 0.23221682 0.08265601 -0.22987328
0.011179985 -0.27928278 0.31352958 -0.06873071 -0.31773028 -0.24442616 -0.04043721 -0.078732744
0.06037398 -0.36714852 -0.2216974 0.2555112 -0.35078338 -0.40043074 -0.27381667 0.06299723
-0.0754768 -0.070311636 0.22491594 0.090485804 -0.10249877 0.7505218 -0.35202125 0.16088729
0.09663661 -0.14825 -0.110244155 -0.21099293 -0.18933143 0.5363798 0.3284392 -0.46857482
-0.19215919 0.25503224 0.085570365 0.039557084 -0.23070121 0.04589997 0.36228266 0.010353246
-0.064467795 0.13649347 -0.25287372 0.16725501 0.31859612 0.5272935 0.19218206 -0.04996909
0.11240737 0.10181694 0.0076822205 0.14221928 -0.14524426 -0.013945305 -0.020589681 0.06074759
-0.25640777 0.39581367 0.084518604 -0.6787747 0.08831559 -0.025674824 0.07793868 -0.34266952
0.039024003 0.22472733 -0.20609693 -0.11791049 0.051580217 0.15063468 -0.018858342 -0.3037729
0.29107082 0.16992314 -0.21189012 -0.35011324 0.19531935 0.39901447 -0.00033476576 -0.030740686
-0.04593105 0.03859429 0.24939449 -0.14604579 0.53945994 0.15974654 0.06430869 -0.08749999
0.19109285 -0.21427147 -0.07100854 -0.17702882 0.16095638 -0.32969385 0.34306145 0.42298508
-0.19230823 -0.15343085 0.018810414 -0.047355678 -0.29711515 0.07830061 0.18265927 -0.297078
-0.09361875 -0.3018212 -0.15559559 -0.13603535 0.02370115 -0.049695577 0.02651761 -0.14630973
0.14465521 0.067316905 0.22455323 -0.45979896 -0.2003261 0.07899317 -0.08113103 -0.09336434
0.05954139 0.008371574 -0.057716426 0.004962673 -0.23929961 -0.19023678 0.14669518 -0.25015467
-0.113592364 0.21771376 -0.16712981 0.18859623 0.10706782 -0.103547566 0.15025772 -0.01862931
0.3192697 -0.24486987 0.22067241 0.37063915 0.055843122 -0.16578516 -0.25492585 0.04205265
0.15067683 0.3996594 -0.18475705 -0.07766159 0.22211717 -0.28396684 0.037547905 0.20558277
-0.079759985 -0.20015413 0.026559586 0.2955944 0.49178654 0.008836761 -0.31024426 -0.11377903
0.14551257 -0.4532896 0.2710014 -0.25421837 0.3127551 -0.08486851 -0.10462772 0.07137444
-0.013206217 -0.3109227 0.34687808 -0.038077697 -0.06161708 -0.022861123 -0.052760523 -0.2105835
-0.016039016 0.026986243 -0.050578445 -0.012352031 0.084967144 -0.01637248 0.20437554 -0.08238295
-0.07677619 -0.16687302 -0.13608643 -0.25335908 0.3183576 -0.2868363 -0.17228757 0.19621725
-0.3103188 -0.08543812 0.118947044 -0.15889709 0.45636937 -0.17661367 -0.22597472 0.37703335
0.22284964 0.1397048 -0.04187716 -0.044995353 -0.04121107 0.20144159 0.25464246 0.087685786
-0.05648979 -0.28886566 0.47185746 0.018550508 0.27981085 0.12336815 -0.20651436 -0.23457904
-0.34581706 0.00894663 0.057724934 0.0064234007 0.086782604 -0.2546954 0.21596742 0.14757542
-0.44945276 0.060185764 0.003227147 0.37799978 -0.06655955 -0.21345389 -0.5444425 0.2212099
0.32205737 0.21223035 -0.33786574 0.44451815 -0.29708907 -0.13202353 0.21113066 0.31788754
00000000: 2cbd e4bd 1465 f7bd 529a 9b3c dee7 29be
00000010: 29f5 a2be c25a b13e 1135 0e3f f2a8 403c
00000020: 5c3c 413d b09e a4bc 43ec 42bd 565b 64bd
00000030: 5098 bebd 3fca 6d3e 8e47 a93d e763 6bbe
00000040: 412c 373c 27fe 8ebe f386 a03e b0c2 8cbd
00000050: 8bad a2be da4a 7abe 7da1 25bd a23e a1bd
00000060: b54a 773d e4fa bbbe a504 63be 5dd2 823e
00000070: e199 b3be 4205 cdbe b331 8cbe b104 813d
00000080: 9593 9abd 8cff 8fbd 5d50 663e 9f50 b93d
00000090: e0ea d1bd 3222 403f 213c b4be a3bf 243e
000000a0: 6ae9 c53d d9ce 17be b0c7 e1bd 880e 58be
000000b0: 19e0 41be 3050 093f 2f29 a83e 0ae9 efbe
000000c0: 61c5 44be 9693 823e 843f af3d 9c06 223d
000000d0: f03c 6cbe 9b01 3c3d 1d7d b93e a9a0 293c
000000e0: b107 84bd f2c4 0b3e aa78 81be e644 2b3e
000000f0: 081f a33e b5fc 063f 60cb 443e 63ac 4cbd
00000100: d635 e63d 6685 d03d 23bb fb3b eea1 113e
00000110: e9ba 14be d97a 64bc b1ab a8bc 77d2 783d
00000120: e147 83be 17a8 ca3e 1718 ad3d 2ec4 2dbf
00000130: cede b43d 0254 d2bc 519e 9f3d 6172 afbe
00000140: a2d7 1f3d ec1e 663e 130b 53be 0e7b f1bd
00000150: c745 533d fa3f 1a3e cf7c 9abc 1f88 9bbe
00000160: 3c07 953e 5500 2e3e b9f9 58be 0b42 b3be
00000170: cc01 483e a04b cc3e 8083 afb9 e4d3 fbbc
00000180: 3222 3cbd 0c15 1e3d 4561 7f3e 078d 15be
00000190: 0c1a 0a3f 9994 233e 46b4 833d 3233 b3bd
000001a0: d8ad 433e fb69 5bbe ed6c 91bd 0b47 35be
000001b0: c0d1 243e a2cd a8be c0a5 af3e 8091 d83e
000001c0: 73ec 44be fa1c 1dbe 4c18 9a3c 07f8 41bd
000001d0: 7a1f 98be 125c a03d 080b 3b3e 9c1a 98be
000001e0: 30bb bfbd 4f88 9abe 7354 1fbe da4c 0bbe
000001f0: ea28 c23c 978d 4bbd 753b d93c 38d2 15be
00000200: 7f20 143e 72dd 893d 48f1 653e c56a ebbe
00000210: 4922 4dbe 2cc7 a13d 0728 a6bd ce35 bfbd
00000220: ace1 733d ed28 093c 0f68 6cbd eb9d a23b
00000230: f50a 75be 6ecd 42be 4337 163e 4614 80be
00000240: 1da3 e8bd 5bf0 5e3e 1424 2bbe 5f1f 413e
00000250: 6046 db3d bf10 d4bd 29dd 193e 7f9c 98bc
00000260: 5177 a33e 2bbf 7abe f3f7 613e 6ac4 bd3e
00000270: c2bb 643d 96c3 29be a485 82be 663f 2c3d
00000280: 074b 1a3e 28a0 cc3e f430 3dbe 0a0d 9fbd
00000290: af72 633e 1a64 91be d5cb 193d 4a84 523e
000002a0: 3459 a3bd 34f5 4cbe 7d93 d93c 2658 973e
000002b0: 72cb fb3e 10c8 103c 56d8 9ebe fb04 e9bd
000002c0: 3f01 153e 9315 e8be b2c0 8a3e e928 82be
000002d0: 7021 a03e 8bcf adbd 0f47 d6bd c32c 923d
000002e0: e45e 58bc 4331 9fbe 019a b13e 5cf7 1bbd
000002f0: 3162 7cbd 4047 bbbc 6b1b 58bd 33a3 57be
00000300: 4164 83bc 4112 dd3c 582b 4fbd 2c60 4abc
00000310: 4103 ae3d 941f 86bc d247 513e 64b8 a8bd
00000320: d63c 9dbd c3e0 2abe 3e5a 0bbe 48b8 81be
00000330: c4ff a23e 35dc 92be 276c 30be 2ded 483e
00000340: 1be2 9ebe 2efa aebd 829a f33d ebb5 22be
00000350: 3fa9 e93e 37da 34be eb65 67be 840a c13e
00000360: b232 643e c60e 0f3e 6387 2bbd 0c4d 38bd
00000370: f0cc 28bd b446 4e3e 7f60 823e 9b94 b33d
00000380: d761 67bd 33e6 93be 4d97 f13e 3cf7 973c
00000390: 5e43 8f3e 71a8 fc3d 8078 53be 7d35 70be
000003a0: ef0e b1be e394 123c fb70 6c3d 647b d23b
000003b0: 14bb b13d 6f67 82be 9026 5d3e 031e 173e
000003c0: ac1e e6be 5985 763d 8b7e 533b 3089 c13e
000003d0: 6050 88bd a893 5abe 9560 0bbf d984 623e
000003e0: b4e4 a43e ea52 593e bdfc acbe e297 e33e
000003f0: 0f1c 98be 2d31 07be a332 583e 28c2 a23e

dense_6/MatMul_bias f4 [27]
-0.3913072 -0.45819038 -0.41926852 -0.32774833 -0.44249964 -0.24455914 -0.4219493 -0.49337468
0.00033512214 -0.44503847 -0.31316525 -0.4458535 -0.21076922 -0.04760041 -0.40998614 -0.33858162
-0.20604798 0.027874146 -0.2771551 -0.40215147 -0.5594784 -0.4409653 -0.36885837 -0.45601997
-0.30987987 -0.49294046 -0.5385154
00000000: 6b59 c8be ee97 eabe 5daa d6be a1ce a7be
00000010: 508f e2be b66d 7abe bd09 d8be 9b9b fcbe
00000020: 55b3 af39 15dc e3be 3257 a0be e946 e4be
00000030: e3d3 57be a6f8 42bd b4e9 d1be 925a adbe
00000040: 3efe 52be 5258 e43c 46e7 8dbe cce6 cdbe
00000050: fa39 0fbf 34c6 e1be 01db bcbe 737b e9be
00000060: 93a8 9ebe b162 fcbe 25dc 09bf

dense_6/kernel/transpose f4 [27, 10]
-0.3414801 -0.36285192 -0.22745341 -0.25187892 -0.5264068 -0.7517147 -0.8085586 0.29178193
-0.34379795 -1.0091038 -0.08008152 -0.20407473 -0.14757872 -1.0386072 -0.17067848 -0.088638395
0.111721136 0.09045173 -0.34056085 -0.36187634 -0.09175549 -0.39921302 0.120964125 -0.5932839
-0.34866473 0.060638294 0.28268704 -1.1146072 0.004366818 -0.5652479 0.18861209 0.3182912
0.1413017 -0.7991527 -1.2186753 0.17055626 -0.40402457 -0.11222378 -0.74285644 -0.84767276
0.2715012 -0.4906981 -0.5313843 -0.22606124 -0.007733605 -0.9892536 0.10622353 -0.13120277
-0.38911346 -0.35854802 -0.2205364 -0.9909295 -0.5116989 0.24450932 -0.19955997 0.106269315
-0.19553998 -0.18889502 0.00928897 -0.14325155 -0.0056982045 -0.5995633 -0.13106288 0.3476925
0.23904145 -0.15962619 -0.17964861 -0.40744933 -0.3921904 -1.0458542 0.0024931964 -0.027268888
-0.54169047 -0.07821658 0.09916255 -0.17538996 -0.2560105 -0.60574925 -0.4189697 -0.8500774
-0.41673595 -0.25823867 -0.0796476 0.08866968 -0.26263583 0.19704224 -0.6516907 -0.23565802
-0.20666501 -0.43231922 -0.2253675 -0.4139724 -1.1901573 -0.08639283 -0.10107343 -0.8970204
0.043641552 0.29197177 -0.2589879 0.26718712 -0.07091037 -0.062038697 -1.5854648 0.060100973
-0.65636516 0.14456967 -0.9816534 -0.84481215 0.30588213 -0.43723288 0.38294962 -0.10414187
0.3196505 -0.78081065 -0.2879877 -1.4014412 0.031006692 -0.61035377 -0.20504083 -0.45137602
-0.32904717 -0.7647268 -1.0542982 -1.0784925 0.27028084 -0.25613362 -0.32543764 -0.09789731
-0.10775212 -0.8010358 -0.3370453 0.007803333 -0.15926762 -0.276013 -0.6425385 -0.7408564
-0.3426715 0.25193477 -0.2166139 0.029402884 0.28081843 -0.067734644 -0.5233878 -0.52034324
-0.12262055 -0.20365444 -1.1244838 -0.483045 -0.2926037 -0.4922895 0.058860753 -0.3682273
0.27996236 0.32038277 -0.11518273 -0.51458704 -0.22391751 -1.1966311 -0.24701802 -0.4532031
0.29679772 -0.61091155 0.09745307 -0.61002785 -0.20901673 -1.094364 0.18486735 -0.42695013
-0.29887822 0.35268524 -0.56059015 -0.20316264 -0.5115876 0.19861278 -0.86352783 -0.291107
-0.35727853 0.38208604 -0.31428295 -0.09815526 -0.46244094 0.18630554 -0.19217803 -0.26428
-0.37139824 -0.19035693 -0.25638473 -0.10742455 -0.07987354 -0.5853636 0.11860439 -0.19222628
-0.78362817 -0.032868754 0.03794363 -0.9136834 -0.32564694 -1.7252527 -1.3833541 -0.5131829
-0.5307828 0.48634747 -0.73570096 0.34649807 -0.36301047 -0.54744834 -1.1343651 -1.9372413
-1.109322 -0.0063761747 0.40995568 -0.57679796 -2.811518 -0.9044186 -0.46533903 -0.43635643
-0.20324087 0.15402657 -0.09372758 0.36584374 0.20944934 -0.38376215 -1.0282289 -0.3728395
-0.062102363 -0.5023612 -0.60899216 -1.3380673 -0.4609876 0.53465503 -1.3878369 -0.72183543
0.20029767 -1.1034851 0.09987459 -0.15505868 0.39900133 -0.42484966 -0.54059404 0.27356574
-0.50898254 -0.0952633 -0.25895834 -1.0100867 -0.76920664 -0.035142656 -0.49789542 -0.68134373
0.6148756 0.083784044 -0.35191292 -0.15052651 -0.4786694 -0.19710809 0.05842945 0.019737288
00000000: 7bd6 aebe bac7 b9be 8ce9 68be 46f6 80be
00000010: 99c2 06bf 6070 40bf b2fd 4ebf 7164 953e
00000020: 4906 b0be 502a 81bf c801 a4bd f7f8 50be
00000030: e01e 17be 15f1 84bf 57c6 2ebe 0c88 b5bd
00000040: 0dce e43d c23e b93d fe5d aebe db47 b9be
00000050: 4dea bbbd a665 ccbe 0abc f73d 74e1 17bf
00000060: 2f84 b2be dc5f 783d 5bbc 903e 73ab 8ebf
00000070: 8617 8f3b 16b4 10bf 8723 413e 10f7 a23e
00000080: 65b1 103e 4595 4cbf 8dfd 9bbf 4da6 2e3e
00000090: 4fdc cebe 95d5 e5bd d72b 3ebf 1501 59bf
000000a0: 3502 8b3e c83c fbbe cd08 08bf 997c 67be
000000b0: 2e6a fdbb b93f 7dbf b98b d93d 055a 06be
000000c0: e139 c7be 9b93 b7be 4bd4 61be 8ead 7dbf
000000d0: b3fe 02bf a760 7a3e 7359 4cbe baa3 d93d
000000e0: a23b 48be b26d 41be c430 183c 89b0 12be
000000f0: 01b8 babb fb7c 19bf 5935 06be c004 b23e
00000100: 48c7 743e 0c75 23be cef5 37be 339d d0be
00000110: 2ecd c8be 8dde 85bf e564 233b 0163 dfbc
00000120: 3aac 0abf 0430 a0bd bc15 cb3d 6d99 33be
00000130: cf13 83be 6212 1bbf 3283 d6be ac9e 59bf
00000140: 6a5e d5be dc37 84be 481e a3bd 7398 b53d
00000150: 3478 86be 71c5 493e 34d5 26bf 5650 71be
00000160: fe9f 53be f258 ddbe bdc6 66be 31f4 d3be
00000170: 1357 98bf b9ee b0bd 96ff cebd 21a3 65bf
00000180: 7cc1 323d 537d 953e 109a 84be c0cc 883e
00000190: 7539 91bd 4a1c 7ebd 83f0 cabf 702c 763d
000001a0: 8c07 28bf 120a 143e a34d 7bbf 9c45 58bf
000001b0: 959c 9c3e fddc dfbe f911 c43e 5548 d5bd
000001c0: 3ba9 a33e 35e3 47bf 2073 93be 6d62 b3bf
000001d0: bf01 fe3c 2540 1cbf 39f6 51be c21a e7be
000001e0: df78 a8be 23c5 43bf 3ef3 86bf 0b0c 8abf
000001f0: 4062 8a3e f223 83be c39f a6be 637e c8bd
00000200: 25ad dcbd af10 4dbf 3491 acbe 1ab3 ff3b
00000210: 0d17 23be 9351 8dbe 677d 24bf c4a8 3dbf
00000220: a472 afbe 98fd 803e 09d0 5dbe 51de f03c
00000230: 6fc7 8f3e 76b8 8abd befc 05bf 3735 05bf
00000240: 7c20 fbbd ca8a 50be 16ef 8fbf ad51 f7be
00000250: 27d0 95be 5f0d fcbe f917 713d 4a88 bcbe
00000260: 3a57 8f3e 3609 a43e ece4 ebbd fabb 03bf
00000270: a24a 65be 352b 99bf 4bf2 7cbe 3d0a e8be
00000280: dff5 973e b364 1cbf 7a95 c73d c92a 1cbf
00000290: 7b08 56be 1f14 8cbf de4d 3d3e 3599 dabe
000002a0: 9106 99be 2993 b43e d682 0fbf de09 50be
000002b0: 68f7 02bf 2661 4b3e 2910 5dbf fa0b 95be
000002c0: 36ed b6be c8a0 c33e b2e9 a0be a005 c9bd
000002d0: 0fc5 ecbe e1c6 3e3e 51ca 44be b54f 87be
000002e0: e927 bebe edec 42be dc44 83be 6701 dcbd
000002f0: bd94 a3bd 64da 15bf dce6 f23d f7d6 44be
00000300: db9b 48bf 63a1 06bd c86a 1b3d 28e7 69bf
00000310: 32bb a6be 15d5 dcbf bf11 b1bf f45f 03bf
00000320: 62e1 07bf 8902 f93e e656 3cbf 3268 b13e
00000330: 82dc b9be 9325 0cbf e032 91bf 86f7 f7bf
00000340: 43fe 8dbf 3bef d0bb b6e5 d13e 08a9 13bf
00000350: e9ef 33c0 fa87 67bf eb40 eebe 1c6a dfbe
00000360: 601e 50be 24b9 1d3e 3ff4 bfbd df4f bb3e
00000370: e379 563e 797c c4be 019d 83bf d2e4 bebe
00000380: 0c5f 7ebd be9a 00bf e9e6 1bbf ca45 abbf
00000390: 9106 ecbe 27df 083f a4a4 b1bf 35ca 38bf
000003a0: d51a 4d3e 003f 8dbf 0d8b cc3d b4c7 1ebe
000003b0: e749 cc3e e585 d9be 5f64 0abf cf10 8c3e
000003c0: ae4c 02bf 6819 c3bd 3096 84be 854a 81bf
000003d0: baea 44bf bff1 0fbd 26ec febe 8b6c 2ebf
000003e0: 7d68 1d3f f896 ab3d ee2d b4be 9f23 1abe
000003f0: 2814 f5be b4d6 49be b853 6f3d 18b0 a13c
